predictor/disease_predictor/predictor/services/air_pollution_disease_model_cuda_svm.pkl (torch, 16008 bytes, 13 tensors)

weight f4 [1, 7]
000000 ba 35 7a 3e 3d d2 06 3b 5b 4f 95 3e d2 3b 1f 3b
       0.24434558 0.002057209 0.29162106 0.002429713
000010 e0 84 41 3a a7 06 91 3e 26 95 d7 ba
       0.00073821656 0.28325388 -0.0016447648

weight f4 [1, 7]
000000 7d 88 f0 3d 4a 2d c4 ba 32 a5 0e 3e 3a 36 22 3b
       0.11744783 -0.001496711 0.13930205 0.002475156
000010 2e 92 04 3e 7f 9b 0b 3e a0 aa 40 ba
       0.12946388 0.13633536 -0.0007349644

weight f4 [1, 7]
000000 25 4e 19 3e 00 72 2e 3e 70 ba 34 3e d4 16 25 3e
       0.14971216 0.17035675 0.17649245 0.1612199
000010 2a c3 5f 3a 3b 0d 02 3b 95 4b 26 3a
       0.00085358566 0.0019844312 0.000634366

weight f4 [1, 7]
000000 47 b5 40 3e 67 ab 59 3e 38 c3 60 3e 5b 04 d2 ba
       0.18819152 0.21256791 0.2194947 -0.0016023027
000010 47 f5 9c ba d9 5b 5c 3e a8 39 03 3b
       -0.0011974954 0.21519412 0.002002338

weight f4 [1, 7]
000000 fb df 7c 3e 93 db 08 bb 38 6c 96 3e 8a 34 87 3e
       0.24694817 -0.002088283 0.2937944 0.26407272
000010 9a 76 2a bb c5 d1 87 ba 71 c3 e8 b9
       -0.0026010633 -0.0010362199 -0.00044396103

weight f4 [1, 7]
000000 4c c2 97 3e c9 a2 b8 3e 32 ac 12 3a ef 47 37 3b
       0.29640424 0.36061695 0.0005595117 0.002796646
000010 20 f5 97 3a a7 fc 9f b8 3c cb 88 ba
       0.0011593439 -7.628771e-05 -0.0010436545

weight f4 [1, 7]
000000 d0 42 52 3e b7 de 6a 3e b9 2b 71 3e 78 b3 76 3a
       0.205333 0.22936521 0.23551835 0.0009410898
000010 6a 98 86 ba 4c 02 70 3b 38 72 75 3e
       -0.0010268812 0.0036622463 0.23969352

weight f4 [1, 7]
000000 c9 ec 32 3e 88 21 4c 3e 85 c8 50 3e 4c 04 a9 ba
       0.17473139 0.19934666 0.20388992 -0.0012894957
000010 f4 27 45 ba ae 37 ce ba 88 de 4f 3e
       -0.0007520907 -0.0015733147 0.20299733

weight f4 [1, 7]
000000 72 44 04 3e 51 46 1b 3e d2 be 1f 3e 4e f9 0e 3e
       0.12916735 0.15163542 0.15600136 0.1396229
000010 39 c8 c4 39 07 90 25 39 4e 61 ad ba
       0.0003753321 0.0001578928 -0.0013227852

weight f4 [1, 7]
000000 0e 59 17 3e fa d0 f5 3a 02 02 11 bb 3b b7 24 3e
       0.14780065 0.0018754296 -0.002212644 0.16085522
000010 4f 89 a0 3a 68 56 36 3e 86 d2 84 3a
       0.0012247952 0.17806399 0.0010133542

weight f4 [1, 7]
000000 25 38 15 3e 3b 7c 32 3e d1 d2 bd ba 86 20 fc ba
       0.14572199 0.17430203 -0.0014482384 -0.0019235767
000010 0b 44 e6 39 e9 f7 31 3e 02 21 97 b9
       0.00043919715 0.17379726 -0.00028825557

weight f4 [1, 7]
000000 ad 70 53 3e 5e d4 32 ba d6 a9 88 3e 53 af b1 ba
       0.20648451 -0.00068218063 0.26692075 -0.0013556279
000010 08 05 ab ba 85 f3 7b 3a e4 47 d8 ba
       -0.0013047764 0.00096111774 -0.0016500917

weight f4 [1, 7]
000000 3d 92 70 3e cb 1f 3a bb e2 13 9b 3e cf 76 6d ba
       0.23493285 -0.0028400298 0.30288607 -0.00090585364
000010 72 81 0d b8 15 df 68 3a 18 89 6b 3a
       -3.3737575e-05 0.00088833395 0.0008984967
